checkpoint_critic_reacher.pth (torch_old, 225415 bytes, 5 tensors)

fc1.weight f4 [300, 33]
0	0xbdacdf3b	-0.08441015
1	0x3e09c2b6	0.13453183
2	0xbdb84065	-0.08996657
3	0xbcfa6f33	-0.030570602
4	0x3e0cd0b6	0.13751492
5	0x3e3cfe8f	0.18456481
6	0xbde79e1e	-0.11309455
7	0xbca9c596	-0.0207241
8	0x3d34905a	0.044082977
9	0x3d20297a	0.039102055
10	0xbcfede1d	-0.031111771
11	0x3d9bc7c6	0.07606463
12	0xbb40d370	-0.0029422902
13	0x3deeca7f	0.11659717
14	0xbc3eff5c	-0.011657562
15	0x3c86caf2	0.016454194
16	0x3e129d1e	0.14317748
17	0xbe17dab8	-0.14829528
18	0xbce799d3	-0.028271591
19	0x3e0ed72c	0.13949269
20	0xbb8e0266	-0.004333782
21	0xbd18c58d	-0.037297774
22	0xbbc508f9	-0.0060130325
23	0x3d964500	0.073373795
24	0xbb56d452	-0.0032780361
25	0x3c30c47d	0.010789034
26	0xbdd96420	-0.106148005
27	0x3dd3f62a	0.103496864
28	0x3d80257f	0.06257152
29	0x3c85c5b4	0.016329624
30	0xbdc1215f	-0.09430193
31	0xbc1d7688	-0.00961078
32	0xbf200e6c	-0.62522006
33	0x3c4803b9	0.012207919
34	0x3dffd4c2	0.12491752
35	0x3d081554	0.033223465
36	0xbe97b710	-0.29631853
37	0x3dd0eabc	0.10201022
38	0x3dfc5f3d	0.12322853
39	0xbd60c8d7	-0.054879036
40	0xbce9679d	-0.02849179
41	0x3e3c124f	0.18366359
42	0x3d6d9959	0.05800757
43	0x3d4173e7	0.047229674
44	0x3d8ca557	0.068674736
45	0x3d56e70d	0.05246644
46	0x3df50e75	0.11965648
47	0x3e006daa	0.12541834
48	0x3d596098	0.053070635
49	0xbd024484	-0.031803623
50	0x3e15d494	0.14631873
51	0xbd4b8bdc	-0.049693927
52	0x3e5996b1	0.2124889
53	0x3cf14e32	0.029456232
54	0xbe0764c9	-0.1322204
55	0xbd26a66a	-0.04068605
56	0x3daa0e3b	0.083034955
57	0x3d880470	0.066414714
58	0x3d1102a1	0.035402898
59	0xbdb07eae	-0.08617912
60	0x3d29cf75	0.041457612
61	0xbd96bf93	-0.07360759
62	0x3d207a3c	0.03917907
63	0xbd9a1b09	-0.07524688
64	0xbcd44c88	-0.0259154
65	0x3e343fe8	0.17602503
66	0x3d871166	0.06595115
67	0x3cde0842	0.027103547
68	0xbd7cf772	-0.06175942
69	0xbdfd4f9d	-0.12368701
70	0x3c911d11	0.017714055
71	0x3e37edef	0.17961858
72	0x3cc466df	0.023974834
73	0x3cd15ff0	0.025558442
74	0x3c60426d	0.013687712
75	0xbdae0652	-0.08497299
76	0xbc3a9122	-0.011387141
77	0x3c51cb2d	0.012804789
78	0xbd67bdc7	-0.05657747
79	0x3c44fc5d	0.012023059
80	0x3d128c15	0.035778124
81	0xbd7f26cc	-0.06229286
82	0x3dc83512	0.09775747
83	0xbb11e42c	-0.0022261245
84	0xbe0146bd	-0.12624641
85	0x3e83a133	0.25708923
86	0xbca76348	-0.020433083
87	0xbc0df5b4	-0.008664537
88	0xbc00cadf	-0.007860868
89	0x3de752b9	0.11295075
90	0x3cd0d299	0.025491046
91	0xbdc84e4c	-0.09780559
92	0x3d0562d9	0.03256497
93	0x3c9d5471	0.019205304
94	0x3d28c9a9	0.041207943
95	0xbd317322	-0.04332269
96	0x3c9c3b8f	0.019071369
97	0x3d18cebe	0.03730654
98	0x3c1ef094	0.009700913
99	0xbb13bec2	-0.002254412
100	0x3de953e1	0.11392952
101	0xbdb73cfe	-0.0894718
102	0xbdf749db	-0.12074634
103	0x3ecfade7	0.40562364
104	0xbe04c512	-0.12965801
105	0x3bd7fc77	0.0065913755
106	0x3c51c2fc	0.012802836
107	0x3d8cd85e	0.06877206
108	0x3c877a1d	0.01653772
109	0xbc0e94de	-0.008702485
110	0x3b7c3bc1	0.0038487765
111	0xbd1055b1	-0.03523797
112	0x3d693ce3	0.05694283
113	0xbb68797b	-0.0035472799
114	0xbd0f8d71	-0.035047
115	0x3e079c9c	0.13243335
116	0xbdd7b949	-0.10533387
117	0x3cec2447	0.028825892
118	0xbe8aca01	-0.27107242
119	0xbc32ab73	-0.0109051345
120	0x3cbc551d	0.022989804
121	0x3c21d4a1	0.009877355
122	0x3c396ad4	0.011316974
123	0xbd33f152	-0.043931313
124	0xbc281caa	-0.01026074
125	0xbda719e3	-0.081592344
126	0x3b8bdc96	0.0042682393
127	0xbae3b065	-0.0017371295
128	0x3d386740	0.045020342
129	0xbcc62d7e	-0.024191614
130	0x3b871418	0.0041222684
131	0x3e81de4f	0.2536492
132	0x3e070e3b	0.13189022
133	0x3d9bf812	0.07615675
134	0xbd301864	-0.04299201
135	0xbe8a9b8e	-0.27071804
136	0x3dbe8f6f	0.093047015
137	0xbdf4c1b3	-0.11951008
138	0x3e8bdf6f	0.27318904
139	0x3d25341b	0.040332895
140	0x3d773c6f	0.06036037
141	0x3dd9372a	0.10606225
142	0x3c531d1e	0.01288536
143	0xbd1dc252	-0.038515396
144	0x3cd90f85	0.026496658
145	0xbb7ab6c3	-0.0038255907
146	0xbe1435cd	-0.14473648
147	0xbd273e98	-0.04083118
148	0x3d45166a	0.04811708
149	0xbdf597b1	-0.119918235
150	0xbb59b918	-0.0033221897
151	0xbde73e0c	-0.112911314
152	0x3d9b5756	0.075850174
153	0xbd72ca6a	-0.05927507
154	0x3cb31a80	0.021863222
155	0x3d4fbbf4	0.050716355
156	0xbd3c2e2a	-0.045942463
157	0xbd391ba3	-0.045192372
158	0x3c4ee31f	0.012627392
159	0x3e26d9be	0.16294
160	0xbc3b72d7	-0.011440954
161	0x3cf4cee4	0.02988381
162	0xbe1ed1be	-0.15509698
163	0xbcf6e426	-0.030138087
164	0xbdeccd14	-0.11562553
165	0x3b6335ca	0.0034669512
166	0x3c723964	0.014784191
167	0xbc75bc27	-0.014998472
168	0x3e418450	0.1889813
169	0xbe0258b5	-0.12729152
170	0x3e0b434b	0.13599889
171	0x3c1c6e92	0.009547846
172	0xba21c9b6	-0.000617172
173	0xbc923799	-0.017848777
174	0x3c9a7ab8	0.018857345
175	0x3bd54021	0.006507889
176	0x3c298229	0.010345974
177	0x3d2827d4	0.041053608
178	0x3d9ebaef	0.077504985
179	0x3dd78273	0.10522928
180	0xbc1789c1	-0.009249152
181	0x3b11bd2b	0.0022237997
182	0x3dc7f626	0.09763746
183	0xbdab86a3	-0.08375289
184	0x3e706037	0.23474203
185	0xbd2b2a97	-0.041788664
186	0xbd940558	-0.07227582
187	0xbd8495f5	-0.064739145
188	0x3c0cf04c	0.008602213
189	0x3c9473fb	0.01812171
190	0x3d3a8f30	0.04554671
191	0xbd9a26cb	-0.075269304
192	0xbc04675a	-0.008081282
193	0x3d07dd71	0.033170167
194	0x3cffb5b4	0.031214572
195	0xbd31e40a	-0.043430366
196	0xbd41c552	-0.04730732
197	0xbeae0ec5	-0.33995643
198	0xbdb37eb2	-0.087643996
199	0x3d3a9dda	0.045560695
200	0xbbd8da86	-0.006617847
201	0x3d0d58b6	0.03450843
202	0xbce32923	-0.027729576
203	0x3e156d8f	0.14592575
204	0x3e0d2b69	0.13786091
205	0xbda93e8d	-0.08263884
206	0x3d857441	0.06516314
207	0x3d1da09a	0.03848324
208	0x3c97aa1a	0.018513728
209	0x3cc435cf	0.02395144
210	0x3d094729	0.03351513
211	0x3e10b7c4	0.14132601
212	0xbbe415ab	-0.006960591
213	0x3e181f84	0.14855772
214	0x3dc977a9	0.098372765
215	0x3db10784	0.086440116
216	0xbe27039d	-0.16309972
217	0xbd73c31f	-0.059512254
218	0x3d4cf62b	0.05003945
219	0xbd331f9a	-0.04373131
220	0xbd7a1dba	-0.061063506
221	0x3d64f0a1	0.055893544
222	0xbc9db2ca	-0.019250292
223	0x3d8402de	0.064458594
224	0xbdab7ed2	-0.083737984
225	0x3d9d012c	0.07666239
226	0xbd6d976f	-0.058005746
227	0xbd586667	-0.052832033
228	0xbd9e3912	-0.07725729
229	0xbbf7f8a8	-0.007567484
230	0xbe7c2612	-0.24623898
231	0xbd9329d5	-0.07185713
232	0x3da782fd	0.08179281
233	0x3cf62aaf	0.03004965
234	0xbd933824	-0.07188442
235	0x3e0ab63c	0.1354608
236	0xbd23c75f	-0.039985057
237	0xbc571610	-0.013127819
238	0x3e09d151	0.13458754
239	0xbb27d2a2	-0.0025607725
240	0xbc8ffc16	-0.017576259
241	0x3ce87842	0.028377656
242	0x3d49413c	0.049134478
243	0xbb924131	-0.004463338
244	0x3d4e5fe2	0.05038441
245	0xbd360b27	-0.04444423
246	0xbd453fe7	-0.048156645
247	0xbc031cc5	-0.008002465
248	0x3becebb9	0.007230249
249	0xbe13e3dd	-0.14442392
250	0xbe137c4f	-0.14402889
251	0xbcd3b022	-0.025840823
252	0x3c7f76b2	0.015592264
253	0xbd6c933a	-0.057757594
254	0x3d0ed6b3	0.034872722
255	0xbc02663a	-0.007958943

fc1.bias f4 [300]
0	0xbd5199f4	-0.05117221
1	0xbe4209da	-0.1894907
2	0xbc9328d9	-0.017963814
3	0x3de8045c	0.113289565
4	0xbe8f910c	-0.2804035
5	0xbe132111	-0.14368083
6	0xbe0fb465	-0.14033659
7	0x3d78478f	0.06061512
8	0xbe6ad984	-0.22934538
9	0x3d9ee99c	0.07759401
10	0xbe2a13ac	-0.16609067
11	0x3da433c9	0.0801769
12	0xbc80099a	-0.015629578
13	0x3d0022b3	0.03128309
14	0xbe2feef8	-0.17181003
15	0xbda57a06	-0.08079915
16	0xbccb4842	-0.024814729
17	0x3d8e4b79	0.06947989
18	0xbe8aaa3b	-0.27083
19	0xbd0c00af	-0.03418034
20	0xbb816091	-0.003948279
21	0x3df67804	0.1203461
22	0xbc76168e	-0.015020026
23	0xbe8cb52d	-0.27481976
24	0xbe9348cd	-0.2876648
25	0x3e05cfb4	0.13067514
26	0xbd8f0596	-0.06983487
27	0x3deabfad	0.114623405
28	0x3e212e7e	0.15740392
29	0xbd1e8a0e	-0.038705878
30	0x3c8bc312	0.01706079
31	0x3cb212a5	0.021737406
32	0x3e0be6f6	0.13662323
33	0x3de3cdae	0.11123215
34	0xbddaa10d	-0.10675249
35	0xbe55a836	-0.20864949
36	0xbe5dfd9e	-0.21678779
37	0xbe646fcf	-0.22308277
38	0xbe5cf075	-0.21576102
39	0xbcad6731	-0.02116737
40	0x3d58b3b6	0.05290576
41	0xbe150582	-0.14552882
42	0xbde8aeb0	-0.11361444
43	0xbd939c85	-0.07207588
44	0xbdcb01e7	-0.09912472
45	0xbd44914c	-0.04799013
46	0x3d9198e6	0.07109241
47	0x3e547fc0	0.20751858
48	0x3d9c2b92	0.07625498
49	0xbe036bef	-0.12834142
50	0x3e0bd932	0.13657072
51	0xbc3e0eaa	-0.011600176
52	0xbe4187ef	-0.18899511
53	0xbe23268e	-0.15932676
54	0x3e551f67	0.2081276
55	0xbdd6fbea	-0.104972675
56	0x3d21b0a5	0.039475102
57	0x3e174bca	0.14775005
58	0xbd26db47	-0.040736463
59	0xbd0c22cd	-0.034212876
60	0x3da94384	0.08264831
61	0xbdb97144	-0.09054807
62	0x3e38c36d	0.18043299
63	0xbe5511c5	-0.2080756
64	0xbe51cab0	-0.20487475
65	0xbe58b62b	-0.21163242
66	0x3d744707	0.05963805
67	0xbe4d4479	-0.20045651
68	0xbde1392f	-0.10997235
69	0x3cef8f3b	0.029243102
70	0xbe4889cb	-0.19583814
71	0xbd4d88aa	-0.05017916
72	0xbe2ba1eb	-0.16760986
73	0xbd3f4011	-0.046691958
74	0xb90d8f2e	-0.00013500146
75	0xbc7c6c7d	-0.015406725
76	0xbd25fcb2	-0.040524192
77	0x3db39be7	0.087699704
78	0xbe19a5f1	-0.15004708
79	0x3d9d6e3c	0.07687041
80	0x3d1a8470	0.03772396
81	0x3d75c801	0.06000519
82	0x3be1f471	0.0068955948
83	0xb8b058f7	-8.408905e-05
84	0x3e1c1a3f	0.15244387
85	0xbe443e0d	-0.19164295
86	0xbe192539	-0.14955606
87	0x3e05b2ba	0.1305646
88	0x3c536e5f	0.0129047325
89	0x3db24c60	0.087059736
90	0xbda930a3	-0.0826123
91	0xbe44e347	-0.19227324
92	0xbc3bd169	-0.0114635015
93	0x3c9b0f43	0.018928176
94	0xbe271d20	-0.16319704
95	0x3dedbf4e	0.11608754
96	0xbe5d73e2	-0.21626237
97	0x3d469c5b	0.048488956
98	0xbe1b5538	-0.15169227
99	0xbe43fb40	-0.19138813
100	0xbca0f5b8	-0.019648418
101	0x3ddcfd51	0.10790504
102	0xbe6ffb44	-0.23435694
103	0x3de995f4	0.114055544
104	0x3dcb056f	0.09913146
105	0x3e0abe01	0.13549043
106	0xba93f713	-0.0011288844
107	0x3e1144ed	0.1418645
108	0x3d4b6690	0.049658358
109	0xbe206d23	-0.15666632
110	0xbd4329e7	-0.047647383
111	0xbdfd5d3f	-0.12371301
112	0xbe25ae54	-0.16179782
113	0x3e19b699	0.15011062
114	0x3b000581	0.001953453
115	0xbe4a1b56	-0.1973699
116	0xbe120bd6	-0.14262328
117	0x3da830df	0.082124464
118	0xbe3cc195	-0.1843322
119	0xbe7ac797	-0.244902
120	0x3e588d3b	0.21147625
121	0xbe0188bd	-0.12649818
122	0xbdf38473	-0.11890497
123	0x3d838568	0.064219296
124	0xbd907e2f	-0.070553176
125	0x3d789b33	0.060694885
126	0x3c8147ea	0.015781362
127	0x3e5028f7	0.20328127
128	0xbdcf9e73	-0.10137644
129	0xbd14a94f	-0.036294278
130	0xbe19a55c	-0.15004486
131	0xbe41150d	-0.18855686
132	0xbbe888c2	-0.007096381
133	0xbe28f07e	-0.1649799
134	0xbda6052d	-0.08106456
135	0x3dbf6a53	0.093464516
136	0xbe2e4860	-0.17019796
137	0x3b8d0599	0.004303646
138	0xbc8cf59d	-0.017206961
139	0xbe0ad85d	-0.13559099
140	0x3db5d46e	0.08878408
141	0xbe16d3ab	-0.14729182
142	0x3e2fbfd0	0.17163014
143	0xbdb71001	-0.089385994
144	0xbdd7db2d	-0.10539851
145	0x3e66eba7	0.22550832
146	0xbdde0c4a	-0.10842188
147	0xbe1c20c2	-0.15246871
148	0xbdc3dda4	-0.09563759
149	0xbe20c372	-0.15699556
150	0xbe05815d	-0.1303763
151	0xbe116aa3	-0.14200835
152	0xbe293b43	-0.16526513
153	0xbd8f2191	-0.06988824
154	0x3d22fc1d	0.039791215
155	0xbe4c8d16	-0.19975695
156	0x3d9a3e2f	0.07531392
157	0xbe1981e4	-0.14990956
158	0x3e3bfff3	0.18359356
159	0xbdd6c2e0	-0.10486388
160	0x3db65085	0.08902077
161	0xbe262ad7	-0.1622728
162	0xbddbe1a2	-0.107363954
163	0x3dc97fe3	0.098388456
164	0xbdcc0218	-0.09961337
165	0xbdcdff39	-0.100584455
166	0xbd98fbf9	-0.07469935
167	0xbd3c7a52	-0.04601509
168	0xbdd1b21a	-0.10239048
169	0x3d0cef59	0.034407947
170	0x3cec5a7c	0.02885174
171	0x3dc8c1f3	0.09802618
172	0xbe1bc087	-0.15210162
173	0xbd2601e1	-0.040529136
174	0xbd20a837	-0.039222922
175	0x3deb2cd8	0.11483163
176	0xbdd680f1	-0.10473812
177	0xbe4faeb0	-0.20281482
178	0x3e11556a	0.14192739
179	0x3dab0817	0.083511524
180	0xbe497e05	-0.19676979
181	0xbe216d54	-0.15764362
182	0xbc13f26f	-0.009029969
183	0x3df7e9b6	0.12105124
184	0xbc60f05c	-0.013729181
185	0xbe00525c	-0.12531418
186	0xbdbad5b3	-0.09122791
187	0x3daa3108	0.08310133
188	0x3b33b130	0.0027418844
189	0x3e1858a2	0.1487756
190	0x3e85b380	0.2611351
191	0x3bd036e5	0.0063542
192	0x3db13b67	0.08653908
193	0xbe210e87	-0.15728198
194	0xbd9d1f7c	-0.07672021
195	0xbe0b4000	-0.13598633
196	0x3d53373a	0.05156634
197	0x3c2ee305	0.010674243
198	0xbb54bc89	-0.0032461009
199	0x3c160589	0.009156593
200	0xbdbd4195	-0.092410244
201	0x3deb9421	0.11502863
202	0xbcc83bdb	-0.024442604
203	0xbda5d006	-0.08096318
204	0xbd4f063c	-0.050543055
205	0x3d9c19e3	0.07622125
206	0x3d8132ba	0.063085034
207	0xbe0b8a5c	-0.13626999
208	0xbd10677f	-0.03525495
209	0xbe22096d	-0.15823908
210	0xbd2bbfa2	-0.041930802
211	0x3db695b0	0.089152694
212	0x3e0efa72	0.13962725
213	0x3d0ab91c	0.03386794
214	0x3da4da82	0.080494896
215	0xbe49d0df	-0.19708584
216	0x3e85640b	0.2605289
217	0xbd07b132	-0.03312797
218	0x3db16a1e	0.08662818
219	0xbcff66da	-0.031176973
220	0xbd942439	-0.072334714
221	0x3dcb84cc	0.09937438
222	0x3e08c083	0.13354687
223	0xbda76394	-0.0817329
224	0x3d8658b3	0.06559887
225	0x3caf1819	0.021373795
226	0xbd01433f	-0.03155827
227	0x3c8fdac2	0.017560367
228	0x3cdec4ab	0.027193388
229	0xbd4e8570	-0.050420225
230	0xbe029993	-0.12753896
231	0xbd9567fb	-0.07295223
232	0x3e05327a	0.13007537
233	0xbd47a9ff	-0.048746105
234	0xbe0fd5cb	-0.140464
235	0xbdf5246b	-0.11969837
236	0xbda578f6	-0.08079712
237	0xbdf1fcd3	-0.118158005
238	0xbdea672c	-0.1144546
239	0x3df97742	0.1218095
240	0x3d263ccf	0.040585335
241	0xbe3e299f	-0.18570565
242	0xbe3cfad2	-0.18455055
243	0x3dd35d7c	0.10320565
244	0xbe0aa8d5	-0.13540967
245	0xbc983fde	-0.018585142
246	0xbdad4d3f	-0.08461999
247	0xbe5b11d0	-0.21393514
248	0xb9f6d588	-0.0004707987
249	0xbd46da7e	-0.048548214
250	0xbdaeca12	-0.085346356
251	0x3d7c32f9	0.06157205
252	0xbe1aae86	-0.15105638
253	0xbe7053fd	-0.23469539
254	0xbd91fb18	-0.071279705
255	0xbe12a34a	-0.14320102

fc2.weight f4 [150, 304]
0	0xbd0e93fd	-0.0348091
1	0x3d8e1980	0.069384575
2	0xbe671eb8	-0.22570312
3	0x3d2c1d35	0.04202004
4	0x3d75f8d4	0.060051754
5	0xbc93857a	-0.018007983
6	0x3e631b30	0.2217834
7	0xbd1e8386	-0.03869965
8	0x3c68730a	0.014187584
9	0x3c5b6986	0.013391858
10	0xbe628a12	-0.22122982
11	0xbb371dcf	-0.0027941351
12	0xbd8c1c2a	-0.06841309
13	0x3d955ae7	0.07292729
14	0xbeaff6c0	-0.34367943
15	0xbdd5606f	-0.10418784
16	0xbc2e3057	-0.010631642
17	0xbe1295c9	-0.14314951
18	0x3d959468	0.07303697
19	0xbd983b11	-0.07433141
20	0x3ddcbc6f	0.10778128
21	0x3cf55752	0.029948864
22	0xbdfd9ebe	-0.12383793
23	0xbd083e7b	-0.03326271
24	0x3c588a24	0.013216529
25	0x3c3abba0	0.011397272
26	0x3d134adb	0.03596006
27	0x3d9030fb	0.07040592
28	0xbca7d5ac	-0.020487629
29	0xbdd84f74	-0.105620295
30	0xbe1085ca	-0.14113536
31	0xbaafcf56	-0.0013413231
32	0x3dac16c2	0.08402778
33	0xbd3214bd	-0.04347681
34	0x3d9cf128	0.076631844
35	0x3df025f3	0.11725988
36	0xbddba851	-0.10725463
37	0xbe0adc98	-0.13560712
38	0x3d1280e1	0.03576744
39	0xbe8088a8	-0.2510426
40	0x3db2e67c	0.08735368
41	0x3cfa99f2	0.030590985
42	0xbe4cdd2c	-0.20006245
43	0x3cb9817f	0.022644756
44	0x3e806497	0.25076744
45	0xbd197aa1	-0.037470464
46	0x3a207b77	0.00061219133
47	0xbdd5038e	-0.10401069
48	0xbc372ad6	-0.0111796465
49	0xbdad724a	-0.084690645
50	0xbe0989b5	-0.13431437
51	0xbda87300	-0.082250595
52	0xbd076ac4	-0.033060804
53	0xbe5e0451	-0.21681334
54	0x3dbed554	0.09318033
55	0x3d5e02af	0.054201778
56	0x3d080ff9	0.033218358
57	0xbdaad654	-0.08341661
58	0x3dd03910	0.10167134
59	0xbe2189e9	-0.15775265
60	0x3d0a5f33	0.033782195
61	0xbddee7af	-0.10884034
62	0xbbef1443	-0.0072961166
63	0x3d896afe	0.0670986
64	0xbf018c48	-0.5060468
65	0xbe86e77a	-0.26348478
66	0xbdf7418c	-0.12073049
67	0xbcf83b14	-0.030301608
68	0x3e030de0	0.12798262
69	0x3d480cae	0.048840217
70	0x3d69f65d	0.057119716
71	0x3db788b3	0.0896162
72	0xbde4b22b	-0.11166795
73	0xbd2b283a	-0.04178641
74	0xbeade70f	-0.33965346
75	0xbe31c45f	-0.17360066
76	0x3e0247fe	0.12722775
77	0x3d9c16dd	0.07621548
78	0xbdef8084	-0.11694434
79	0x3d793240	0.060838938
80	0x3dde4eba	0.1085486
81	0xbea7aa7c	-0.32747257
82	0xbdd285dd	-0.10279439
83	0x3de0b972	0.10972871
84	0xbd2db744	-0.042411104
85	0xbb32de74	-0.0027293237
86	0x3db4f6cb	0.088361345
87	0xbd281e1f	-0.04104435
88	0xbd51d490	-0.051228106
89	0x3c4173e9	0.01180742
90	0xbd6ff47b	-0.058582764
91	0xbc6e2325	-0.014534746
92	0x3dd5c683	0.10438254
93	0x3b6af29f	0.003585018
94	0x3bbd592a	0.0057784515
95	0xbe8bddb9	-0.27317598
96	0x3dc473e2	0.095924154
97	0xbd9e1e24	-0.077205926
98	0xbb528c23	-0.0032126985
99	0x3ddacba9	0.10683376
100	0xbeae9d01	-0.3410416
101	0x3daaf37c	0.08347222
102	0x3da9157b	0.0825605
103	0xbe0c3097	-0.1369041
104	0xbebe6f35	-0.3719422
105	0x3d8ee95e	0.06978105
106	0xbd8e4844	-0.06947377
107	0x3d76e860	0.060280204
108	0x3dc3d3f3	0.095619105
109	0xbe993a17	-0.29927132
110	0xbd06e1e6	-0.032930277
111	0x3d7d2974	0.06180711
112	0x3c0c2f44	0.008556191
113	0xbd7c054b	-0.061528485
114	0x3ccea629	0.025225716
115	0xbe172b9d	-0.14762731
116	0x3d84797b	0.06468483
117	0xbcbba14c	-0.02290406
118	0xbe1e6a2e	-0.15470192
119	0xbdaa5ee0	-0.08318877
120	0xbbd90724	-0.0066231657
121	0x3ced6da4	0.028982945
122	0xbce39a75	-0.027783612
123	0x3d4bddf9	0.049772236
124	0x3e0e4973	0.13895206
125	0x3dfc0a30	0.123066306
126	0xbdad43c4	-0.08460191
127	0x3d82a657	0.06379383
128	0xbd437edf	-0.047728416
129	0xbd36f3a5	-0.04466595
130	0x3d4da41a	0.050205328
131	0xbe1fb1ca	-0.15595165
132	0xbda32169	-0.07965357
133	0x3d98ee5a	0.07467337
134	0xbde34e96	-0.110989735
135	0x3d2527cd	0.04032116
136	0xbd6cfbc9	-0.05785731
137	0xbddc30c8	-0.10751492
138	0xbe6535fe	-0.22383878
139	0x3dbf10b7	0.0932936
140	0xbd40eab6	-0.047098838
141	0x3daee059	0.08538885
142	0x3d2c7413	0.042102885
143	0xbde2e6a0	-0.110791445
144	0xbe5eb4d8	-0.21748674
145	0xbcbe081d	-0.023197228
146	0xbd9008a6	-0.070328996
147	0xbd961f74	-0.07330218
148	0xbd8c28e6	-0.06843738
149	0xbc5b94e8	-0.013402201
150	0x3d0ac48b	0.033878844
151	0xbd4cf3a8	-0.050037056
152	0xbe136120	-0.14392519
153	0x3e8f730d	0.28017464
154	0x3cbaba76	0.02279399
155	0xbe064fbc	-0.13116354
156	0x3c963881	0.01833749
157	0xbd31f553	-0.04344685
158	0xbce52519	-0.027971791
159	0xbe1dcff4	-0.15411359
160	0x3d55288c	0.05204062
161	0x3d9ceddc	0.076625556
162	0xbe13828d	-0.1440527
163	0xbc91b181	-0.017784836
164	0xbd4d5e18	-0.050138563
165	0xbe395ace	-0.18101045
166	0x3d54a479	0.051914666
167	0x3d3f5971	0.046716157
168	0xbe1040a3	-0.14087157
169	0x3d963083	0.073334716
170	0xbe431c04	-0.19053656
171	0xbdbdfc80	-0.09276676
172	0xbeecd091	-0.46252874
173	0xbe0f3bea	-0.13987699
174	0xbe97b9a6	-0.29633826
175	0xbcec6637	-0.028857334
176	0x3c5b22be	0.013374982
177	0x3d00e7fe	0.031471245
178	0xbaf69f95	-0.001881587
179	0x3e22a3aa	0.15882745
180	0x3e8780b0	0.26465368
181	0xbdd9fc6d	-0.106438495
182	0x3dcf2b99	0.101157375
183	0x3d7c7fb1	0.061645214
184	0xbd411f9c	-0.047149286
185	0xbe4870a8	-0.19574225
186	0x3cba199e	0.022717293
187	0xbb3075ae	-0.0026925611
188	0xbe738152	-0.237798
189	0x3c5cd89c	0.013479378
190	0x3d495b1a	0.049159147
191	0xbe31026b	-0.17286079
192	0x3aebb110	0.0017981846
193	0xbd77dfa3	-0.06051601
194	0xbddad0c1	-0.10684348
195	0xbdc7e61e	-0.09760688
196	0xb893dd32	-7.050707e-05
197	0xbe572171	-0.2100885
198	0x3d8f6765	0.07002143
199	0x3c2ed0fe	0.010669945
200	0x3ddf88d0	0.10914767
201	0x3e0db99a	0.13840333
202	0x3cb99d16	0.022657912
203	0xbdae24b3	-0.085030936
204	0x3e0b3054	0.13592654
205	0xbe8de0e9	-0.27710655
206	0x3dc376c7	0.09544139
207	0x3c9f8288	0.019471422
208	0x3d63c72c	0.055609867
209	0xbe820ae9	-0.2539895
210	0xbe74eb7f	-0.2391796
211	0x3d85b709	0.06529052
212	0xbe391f1f	-0.18078278
213	0xbe267f54	-0.1625951
214	0x3d72bb85	0.059260864
215	0xbded03be	-0.115729794
216	0x3cd9b527	0.026575638
217	0xbcf0e1f9	-0.029404627
218	0xbd237177	-0.03990313
219	0x3e0460c2	0.12927535
220	0xbcf4fe07	-0.029906286
221	0xbd047149	-0.0323346
222	0x3e1d832b	0.15382068
223	0x3d742a7e	0.059610836
224	0xbd831845	-0.064011134
225	0xbd1586f2	-0.036505647
226	0xbe405611	-0.18782832
227	0xbdd1b9d5	-0.10240523
228	0xbd90ec6f	-0.07076346
229	0x3e0a3bd6	0.13499388
230	0xbdc5b383	-0.0965338
231	0x3d2b8384	0.04187347
232	0xbd9605e2	-0.07325341
233	0x3b8e36da	0.004340035
234	0x3d909b2f	0.07060849
235	0xbd96b19a	-0.073580936
236	0xbe63ecd3	-0.2225831
237	0x3d2aba44	0.041681543
238	0xbd372ee0	-0.044722438
239	0x3b5a48d4	0.003330757
240	0xbd675a75	-0.05648275
241	0xbe013751	-0.12618758
242	0xbc027d64	-0.007964466
243	0xbc6a8e8a	-0.0143162105
244	0x3d8afd91	0.06786645
245	0xbe7459cc	-0.2386238
246	0xbdc482a9	-0.09595234
247	0xbd1a937f	-0.03773832
248	0xbcbf0db5	-0.023321966
249	0x3d3975fa	0.045278527
250	0xbd5073dd	-0.050891746
251	0x3c020644	0.007936064
252	0x3d80253e	0.062571034
253	0xbdb988c1	-0.09059287
254	0x3d4d1241	0.050066236
255	0x3e203066	0.15643463

fc2.bias f4 [150]
0	0xbda55d6c	-0.080744594
1	0x3e3274cd	0.17427368
2	0x3e791e6a	0.24328008
3	0x3e4ecc0a	0.20195022
4	0xbd6b19f6	-0.057397805
5	0x3e60d2b2	0.21955374
6	0xbdba6099	-0.09100456
7	0x3d0c5599	0.03426132
8	0x3ba68355	0.005081574
9	0xbc781711	-0.015142218
10	0xbdbf6b77	-0.09346669
11	0x3e2d4107	0.16919337
12	0x3e0172f4	0.12641507
13	0xbd941079	-0.072297044
14	0x3d7e9fe4	0.062164202
15	0x3e5865a8	0.21132529
16	0xbdbde3ab	-0.0927194
17	0x3e1802cc	0.14844817
18	0x3dc5ca6c	0.096577495
19	0xbd9b8785	-0.07594208
20	0xbc00f581	-0.007871033
21	0xbdea6f26	-0.11446981
22	0xbe3f7f35	-0.1870087
23	0xbdd14e49	-0.1022001
24	0x3d88c03c	0.06677291
25	0x3da753ab	0.08170255
26	0x3e571d77	0.21007334
27	0x3dd97eb8	0.10619873
28	0x3e1631a1	0.1466737
29	0xbdb1785a	-0.08665533
30	0xbdfba9b5	-0.122882284
31	0x3e86ed97	0.26353142
32	0xbdb9942f	-0.09061467
33	0xbd73c393	-0.059512686
34	0x3e2da72a	0.169583
35	0x3e8397a8	0.25701642
36	0x3cf29405	0.029611597
37	0xbcaf75f9	-0.021418558
38	0x3e26fd19	0.16307487
39	0x3e27d5de	0.16390178
40	0xbe0647e3	-0.1311336
41	0xbe2e63a7	-0.17030202
42	0x3d64a1c6	0.05581834
43	0xbd29fb7c	-0.0414996
44	0x3e5d7cfe	0.21629712
45	0x3d830a6e	0.06398474
46	0x3db1673e	0.0866227
47	0x3df2a681	0.11848164
48	0xbdd9238b	-0.106024824
49	0xbe0861c9	-0.13318552
50	0x3e1640ad	0.1467311
51	0x3d91eeb7	0.07125609
52	0xbe107f9d	-0.1411118
53	0x3d4e1138	0.05030939
54	0x3dbc7e20	0.09203744
55	0xbce44ab3	-0.02786765
56	0xbd9c93eb	-0.076454006
57	0xbd9910fd	-0.074739434
58	0x3e8a9505	0.27066818
59	0x3dee7e39	0.11645169
60	0x3dd5f24d	0.10446606
61	0x3e57f4c7	0.21089469
62	0xbe309c51	-0.1724713
63	0x3dd30a82	0.103047386
64	0xbdd90788	-0.105971396
65	0x3e4b2cda	0.19841328
66	0x3e1511dd	0.14557596
67	0x3e22e6e2	0.15908387
68	0xbdbbfd4f	-0.09179174
69	0x3ea4a917	0.32160255
70	0x3ea0ca8e	0.31404537
71	0xbdaf6c96	-0.08565633
72	0x3debae63	0.11507871
73	0x3e1b89e8	0.15189326
74	0x3e04f963	0.12985758
75	0xbde45e67	-0.11150818
76	0xbdd89f94	-0.10577312
77	0x3dcec636	0.100963995
78	0x3dd55b7d	0.10417841
79	0xbd44a928	-0.048012882
80	0x3e133671	0.14376236
81	0x3dbe9cac	0.093072265
82	0x3e31fe98	0.17382276
83	0xbdd46bd8	-0.10372132
84	0xbdec7a73	-0.11546793
85	0xbddb28ec	-0.107011646
86	0x3dd7f997	0.10545652
87	0x3e3e8c23	0.18608145
88	0xbd65daa5	-0.05611672
89	0xbd4c8c07	-0.049938228
90	0xbdde1930	-0.10844648
91	0xbdf0acf2	-0.11751737
92	0x3d1464d3	0.036228966
93	0xbdf659ac	-0.12028822
94	0x3e042e59	0.12908305
95	0x3df2eccb	0.11861571
96	0xbdd2a69d	-0.10285685
97	0x3e584f34	0.21123964
98	0xbe0432a3	-0.12909941
99	0xbe3dad57	-0.18523155
100	0xbde7105e	-0.11282419
101	0x3e09b229	0.13446869
102	0x3d82e29b	0.06390878
103	0x3e1483f4	0.14503461
104	0x3dda2957	0.10652416
105	0xbcd4e26c	-0.025986873
106	0x3e175202	0.14777377
107	0xbe256b66	-0.1615425
108	0xbdb16845	-0.08662466
109	0x3e06a8c8	0.13150322
110	0x3e326a2c	0.17423314
111	0xbe341f47	-0.17590056
112	0xbd1687c1	-0.03675056
113	0x3e80bbee	0.2514338
114	0x3e36147f	0.17781256
115	0x3e32d02d	0.17462225
116	0x3d91216c	0.07086453
117	0x3e493331	0.19648434
118	0xbd510241	-0.05102754
119	0xbda6f44a	-0.08152063
120	0xbe3da4de	-0.18519923
121	0xbdd94245	-0.10608343
122	0xbdc31415	-0.09525315
123	0xbd46296f	-0.048379358
124	0xbdc75915	-0.09733788
125	0xbd57249a	-0.05252514
126	0xbe268616	-0.16262087
127	0x3dc12c05	0.09432224
128	0x3dfb8598	0.1228134
129	0xbe409309	-0.1880609
130	0x3e439119	0.19098319
131	0x3e582fa0	0.21111917
132	0x3e584ba7	0.21122609
133	0x3e20ddbd	0.15709586
134	0x3e26ea06	0.1630021
135	0x3dee8599	0.116465755
136	0x3dd54820	0.104141474
137	0xbd80087a	-0.06251617
138	0xbdfbcd62	-0.12295033
139	0x3e907942	0.28217512
140	0xbe181618	-0.14852178
141	0x3de2e5ea	0.11079009
142	0x3e1008bb	0.1406583
143	0x3d3a3b4a	0.0454667
144	0x3da9bd63	0.08288076
145	0xbddc5299	-0.10757942
146	0x3dc5f02d	0.096649505
147	0x3e3a9df9	0.18224324
148	0x3df59738	0.11991733
149	0xbd55f075	-0.05223127

fc3.weight f4 [1, 150]
0	0xbec44d0b	-0.3834003
1	0x3e0d315e	0.13788363
2	0x3deb22a4	0.114812165
3	0x3e103459	0.14082469
4	0xbe0bd178	-0.13654125
5	0x3e0fc496	0.14039835
6	0xbea45cb0	-0.32101965
7	0x3e6d6dda	0.23186436
8	0x3e4fb8fd	0.20285411
9	0xbe2a0cf9	-0.16606511
10	0xbe16a050	-0.14709592
11	0x3e0f28a0	0.13980341
12	0x3dffd655	0.124920525
13	0xbda91e71	-0.08257759
14	0x3e5872a7	0.21137486
15	0x3e393faf	0.180907
16	0xbdebf65d	-0.115215994
17	0x3df0831c	0.11743757
18	0x3de8a6e2	0.11359955
19	0xbe5d375b	-0.21603148
20	0xbe3968b2	-0.18106344
21	0xbe7c6015	-0.24646027
22	0xbde99088	-0.1140452
23	0xbdeb9417	-0.11502855
24	0x3e87d88b	0.26532397
25	0x3e922fcf	0.285521
26	0x3e36011c	0.1777386
27	0x3e588f07	0.2114831
28	0x3df3e3b8	0.11908668
29	0xbe86fe48	-0.26365876
30	0xbdfb4856	-0.12269656
31	0x3e01ce02	0.12676242
32	0xbe19ace1	-0.15007354
33	0xbe402ae0	-0.18766356
34	0x3e0e62e7	0.13904916
35	0x3e2f1920	0.17099428
36	0x3e17ef38	0.14837348
37	0xbe2c9d3a	-0.16856852
38	0x3de65d36	0.11248247
39	0x3e2f041c	0.17091411
40	0xbe36f4c5	-0.1786681
41	0xbe9e97dc	-0.30975235
42	0x3e51210f	0.20422767
43	0xbebb7a79	-0.36616877
44	0x3e385bd7	0.18003784
45	0x3ebe2748	0.37139344
46	0x3e29a8bf	0.16568278
47	0x3e679e95	0.22619088
48	0xbe02ab7d	-0.1276073
49	0xbe4ebbba	-0.201888
50	0x3ded5a9e	0.115895495
51	0x3e514b17	0.20438801
52	0xbe362547	-0.17787658
53	0x3ef04500	0.46927643
54	0x3e146c17	0.14494358
55	0xbf0b01cc	-0.54299617
56	0xbe3867ce	-0.18008348
57	0xbef99a79	-0.48750666
58	0x3e11eb1e	0.14249846
59	0x3e5f3699	0.21798171
60	0x3e064d68	0.13115466
61	0x3df63030	0.1202091
62	0xbd80abb6	-0.06282751
63	0x3dd2e8aa	0.102982834
64	0xbe70385c	-0.23459
65	0x3e18bcab	0.14915721
66	0x3e04e93d	0.12979598
67	0x3e40b0d9	0.18817462
68	0xbdf9690d	-0.1217824
69	0x3e1eb31b	0.15498011
70	0x3e1a4e43	0.15068917
71	0xbe3103c1	-0.17286588
72	0x3e1b2df3	0.15154247
73	0x3e3b3979	0.18283643
74	0x3deafd87	0.11474138
75	0xbe2f68d1	-0.17129828
76	0xbe86ac51	-0.26303342
77	0x3e07aaa1	0.13248684
78	0x3e630fb0	0.22173953
79	0xbe0099be	-0.12558648
80	0x3e21d04f	0.1580212
81	0x3dfead59	0.12435407
82	0x3e1fa565	0.15590437
83	0xbeb80400	-0.35940552
84	0xbe82fe0d	-0.2558445
85	0xbe101e7b	-0.14074127
86	0x3dfba31a	0.122869685
87	0x3e319d61	0.17345192
88	0xbec77299	-0.3895462
89	0xbe94e17e	-0.29078287
90	0xbe1dab84	-0.1539746
91	0xbddf6348	-0.10907608
92	0x3e13a330	0.1441772
93	0xbea79622	-0.3273173
94	0x3e94fcf1	0.2909923
95	0x3e540143	0.20703606
96	0xbe3cb8aa	-0.18429819
97	0x3e14a835	0.14517291
98	0xbe52ce0b	-0.20586412
99	0xbe26bb77	-0.1628245
100	0xbe90f7c1	-0.2831402
101	0x3e5b40e6	0.21411476
102	0x3e88e00c	0.26733434
103	0x3e140326	0.14454326
104	0x3def7c13	0.11693587
105	0xbe1f0ccf	-0.1553223
106	0x3dd42eeb	0.103605114
107	0xbea2a56e	-0.31766838
108	0xbe3a8edd	-0.1821856
109	0x3e188a4d	0.14896508
110	0x3de901b4	0.11377278
111	0xbdcf880b	-0.1013337
112	0xbe11d7dc	-0.142425
113	0x3e13a574	0.14418584
114	0x3e2cef64	0.16888195
115	0x3e56be91	0.20971133
116	0x3e5a7bac	0.2133624
117	0x3e1d9115	0.15387376
118	0xbe20730d	-0.15668888
119	0xbe962215	-0.29322878
120	0xbe27af4a	-0.16375461
121	0xbec252a2	-0.3795367
122	0xbe81fe2b	-0.25389227
123	0xbe88cf5f	-0.26720712
124	0xbe2dad34	-0.16960603
125	0xbeb0f531	-0.34562066
126	0xbe0f2656	-0.13979468
127	0x3e5cf269	0.21576847
128	0x3e2ff0fe	0.17181775
129	0xbddb6752	-0.10713066
130	0x3ded340c	0.11582193
131	0x3dfaaa5a	0.12239523
132	0x3e0cd8ec	0.13754624
133	0x3e10ad4a	0.14128605
134	0x3e073f13	0.13207655
135	0x3d91b7dd	0.07115147
136	0x3e0de2c4	0.13856035
137	0xbe357c56	-0.17723212
138	0xbe6af92b	-0.22946613
139	0x3e0bfd62	0.13670877
140	0xbf1ab939	-0.6043888
141	0x3e73f5b5	0.23824199
142	0x3dd386f7	0.10328477
143	0x3e142ce1	0.14470245
144	0x3e988a72	0.29793125
145	0xbdab86fd	-0.08375356
146	0x3e21389a	0.15744248
147	0x3e46a327	0.19398175
148	0x3e36fd71	0.17870118
149	0xbdf801c9	-0.121097155
