checkpoint_actor_reacher.pth (torch_old, 224828 bytes, 6 tensors)

fc1.weight f4 [300, 33]
000000 af ff 62 be 12 49 29 3d 5f 2b 03 3d ba 15 bf bd
       -0.22167848 0.04132945 0.032023784 -0.09330316
000010 6a 8a 89 3e 7e 8f 27 3e 47 dc 90 3e b2 a3 82 be
       0.26863414 0.16363332 0.28293058 -0.25515515
000020 88 3e 84 bd e0 a4 c2 3d 41 c0 b2 3b a3 51 0e bd
       -0.064572394 0.09504104 0.0054550474 -0.034745824
000030 07 6d a2 bc eb 8e 92 3d 5b 8c 6a bd f9 55 af 3b
       -0.019827379 0.07156166 -0.05726276 0.005350825
000040 d3 3e 2f bf b9 a6 6c be 97 2f 33 be 4c 0e 25 3f
       -0.6845524 -0.23110475 -0.17498623 0.6447494
000050 dc 9d 24 3d de cf e1 3d a8 ac 47 bd 8d 50 12 bd
       0.04018961 0.11025976 -0.048748642 -0.03572135
000060 b4 e2 b0 bb 23 2e 3d 3b e5 38 13 3c 9b d0 68 bc
       -0.005398119 0.002886661 0.008985733 -0.014209892
000070 ce f9 1d bd 77 e0 3c bd a1 62 18 3c 00 28 62 3c
       -0.03856831 -0.046112504 0.009300859 0.013803482
000080 4b 9e f3 3e fd dc 30 3a 3e 87 18 3b 55 52 51 3c
       0.47581705 0.0006746797 0.002327397 0.012775977
000090 36 d0 08 be 8b f4 78 3d 7c 9c ed bd c1 9f bd 3d
       -0.13360676 0.06078009 -0.11602113 0.09258986
0000a0 4c c2 2c bd ea 12 c4 bb 71 35 e7 3d cc 75 fe 3c
       -0.042177483 -0.0059837 0.1128949 0.03106203
0000b0 af a4 47 3d 0f 46 cd bc 27 a8 80 3d be c9 9d 3d
       0.04874104 -0.02505782 0.062820725 0.07704495
0000c0 f4 9f 47 3e 82 96 c8 3d 96 42 85 3e d9 7c 96 3e
       0.19494611 0.09794332 0.26027364 0.29392126
0000d0 8a 0a a0 be 86 3e 0d bd 50 d1 35 be e5 67 d1 bb
       -0.3125804 -0.034483455 -0.17755628 -0.006390559
0000e0 04 3e 19 3e 25 ef bc 3c 56 1d f9 3d 49 55 74 bc
       0.14965063 0.023063252 0.121637985 -0.014912912
0000f0 c9 fd 0c 3e d9 fb 6a 3d 00 79 c3 bc 52 47 b8 bd
       0.13768686 0.057369087 -0.023861408 -0.08997978
000100 0c 07 5c bd 97 67 6f be 14 57 93 3d 5a 99 f3 3d
       -0.053717658 -0.2337936 0.07194343 0.11894484
000110 76 98 37 3e 21 30 9a be b3 a7 2f 3e ce 1b b9 3d
       0.17929253 -0.30114844 0.17153816 0.090385064
000120 dc ad b8 bb 73 7b 57 be 89 b6 bc bd c2 1b 9f 3b
       -0.00563596 -0.21043186 -0.09214503 0.004855604
000130 4e a2 18 be 4a d5 12 be 7b 95 47 3e 74 4e 0d 3e
       -0.14905664 -0.14339176 0.19490616 0.13799459
000140 9b 6e 83 bb 69 59 8e bd 1d ba 83 3e 91 f7 59 3e
       -0.004010988 -0.069506474 0.2572793 0.21285845
000150 7a 6b 0c be 89 06 bf 3d 87 42 c8 bd b7 c1 5c be
       -0.13712874 0.09327418 -0.09778314 -0.21558271
000160 be ba a3 bd 88 3c 76 3d da bc 3c bd 4a 38 54 3d
       -0.079946026 0.06011632 -0.04607854 0.051811494
000170 5f d3 79 3d 27 ec 00 3e 41 43 9f 3d 80 77 0d 3a
       0.060992595 0.12590085 0.077764995 0.000539653
000180 7b d2 42 be 1a 01 86 bc f2 42 ba 3d f5 a0 42 3d
       -0.19025604 -0.016357947 0.090948 0.04751678
000190 6f 0f 94 3d 47 bb 1a 3e 7b b6 7b bd e6 15 3d be
       0.07229506 0.15110503 -0.061453324 -0.18465385
0001a0 bd 84 9c be 07 a1 41 be 27 bc 90 3c 28 80 33 be
       -0.3057002 -0.18909083 0.017667843 -0.17529356
0001b0 89 00 0d bd da 77 02 bd 69 02 59 bd 30 9a 59 bd
       -0.03442434 -0.03185258 -0.052980814 -0.05312556
0001c0 b8 c3 47 bd 79 15 c9 bd 36 f9 b7 3c 16 12 8c 3e
       -0.048770636 -0.09818549 0.0224577 0.27357548
0001d0 bc c6 ba 3d 74 0f aa bb 0b 27 28 bd 9d b0 b2 bc
       0.09119937 -0.0051898304 -0.04105286 -0.021812731
0001e0 49 e7 2e 3d a6 3c d6 bd 4a c5 2f 3d 1a 31 7e bd
       0.04270104 -0.104607865 0.04291276 -0.062058546
0001f0 c5 da 62 bd 04 bf cc 3d aa cf 24 3d bb 01 6f be
       -0.055384416 0.09997371 0.040237106 -0.23340504
000200 20 cd 19 3d 2d 6b 29 bd e7 89 56 bd ed 4a a7 3e
       0.037549138 -0.041361976 -0.052377608 0.3267435
000210 0a c3 c2 3d 3a 69 ab bd 3e 59 0a be 97 61 56 3e
       0.09509857 -0.0836968 -0.13510606 0.20935665
000220 8a db af 3d 21 26 de 3d da 42 7a be ed 9f ae 3c
       0.08586796 0.10847116 -0.24439564 0.021316493
000230 cc d4 b6 3c 5d 97 07 3e 37 f9 10 3d 0c 83 e5 bd
       0.022318266 0.13241334 0.03539392 -0.11206636
000240 ba 1b 3f 3d 4a 30 b0 bd cc 3d 2d bd 71 41 43 3e
       0.0466573 -0.086029604 -0.042295262 0.19067933
000250 e8 be ea 3e 96 1d ca be f4 27 7c be 23 97 bb 3e
       0.45848775 -0.39475697 -0.24624616 0.36638746
000260 e3 c6 53 3d 7a b2 81 bc 17 59 4e 3c 05 8f db bd
       0.051703345 -0.015832175 0.012594483 -0.10720638
000270 5a 23 83 bc 25 74 0c 3e cf 66 b2 3d a8 c6 21 3e
       -0.016008068 0.1371618 0.087110154 0.15798438
000280 a6 66 1f 3e 3c 8a cb bc f5 4d 0a be a1 1f 48 bd
       0.15566501 -0.024846189 -0.13506301 -0.04885829
000290 17 09 fa bd 99 d0 22 3e 22 80 84 3d a0 d1 92 bd
       -0.12208765 0.15899886 0.06469752 -0.07168889
0002a0 9d 26 13 be e3 a5 9d 3e 4a 25 27 3c 53 a0 07 be
       -0.14370199 0.30790624 0.0102017615 -0.13244753
0002b0 82 59 27 bd eb 09 6e be 79 a9 27 3e bd 1e 02 3e
       -0.040856846 -0.23245971 0.16373242 0.12707038
0002c0 65 18 dd 3d ed 15 e1 bb 5c 5b ef 3d e8 87 29 3e
       0.107956685 -0.006869069 0.11687347 0.1655575
0002d0 31 62 fd 3b e1 71 f1 be e0 20 7d 3d 3d 29 0e 3f
       0.0077326526 -0.47157195 0.06179893 0.55531675
0002e0 2f 99 31 bc 20 e4 1b 3c b4 98 88 3e 35 1e 9b bd
       -0.0108397445 0.009514838 0.26679003 -0.07574121
0002f0 96 37 0c bc 5c f8 41 3d 70 ed 25 3c 16 d2 46 bd
       -0.008558175 0.047355995 0.01012741 -0.048540197
000300 2f 04 6c bc 85 bd fe bd fb 86 3c bd 63 d4 b3 3c
       -0.014405294 -0.12438492 -0.046027165 0.02195186
000310 24 2a b8 3c 64 94 0d bf 42 dc 29 be dd d9 c2 bd
       0.022481032 -0.5530455 -0.16587928 -0.095142104
000320 58 2b 3a be fe e6 39 be c3 9a 95 bd a4 b6 7d be
       -0.18180597 -0.18154523 -0.07304909 -0.24776703
000330 18 a2 56 be cd 06 b6 3d cd 34 2b 3e df 34 46 3e
       -0.20960271 0.08888016 0.1671936 0.19356106
000340 05 f5 48 bc 43 a1 33 3d 8f 93 a1 bd 29 8d 78 bd
       -0.012265448 0.043854963 -0.07889473 -0.060681496
000350 31 b7 92 bd f6 4a c9 3d 81 4e d0 be e6 3c d6 bd
       -0.07163847 0.09828751 -0.40684894 -0.10460834
000360 2c 03 bd 3c a5 2a 72 be 0c 36 a8 3d 73 39 bc bd
       0.023072802 -0.2364908 0.082134336 -0.09190645
000370 fe 3d 28 bc 63 d3 2c 3d c7 74 bf bd cb 01 0d bc
       -0.010268686 0.04219378 -0.093484454 -0.0086063845
000380 75 17 90 3c e2 83 7f bc 12 5f 74 bd 06 1f 2c bd
       0.01758931 -0.015595408 -0.05966098 -0.042021774
000390 60 c9 d3 3c 8a a4 64 3d 45 04 57 be b7 3d 92 bd
       0.025852859 0.05582098 -0.20997722 -0.071406774
0003a0 89 58 a5 bb 32 5f 1a be af 4e 2e 3d 63 47 61 3e
       -0.0050459546 -0.15075377 0.042555507 0.21999888
0003b0 64 d6 aa 3e 8a a9 45 be a9 f6 c7 bd 8d 44 00 3e
       0.33366692 -0.19302955 -0.097638436 0.1252615
0003c0 14 cf 78 be 43 62 15 be e6 3b 00 bd bd 2e be bd
       -0.24297744 -0.14588265 -0.031307124 -0.09286258
0003d0 80 84 6b 3c 27 25 78 3c fe 25 05 be be b9 91 3e
       0.014374852 0.015145577 -0.13002774 0.28462023
0003e0 d5 28 69 bd 4a e9 80 be 1f 7b 4b bd 89 9c 16 bd
       -0.056923706 -0.25177985 -0.049677964 -0.036770377
0003f0 3b 5d 08 be 15 98 1a bd a6 bd 84 3b 57 1c c6 bd
       -0.13316815 -0.037742693 0.004050928 -0.09673374

fc1.bias f4 [300]
000000 d0 e0 56 3d 3b 55 87 be 3e 7b 2c be a3 8f 1d 3d
       0.05246049 -0.26432213 -0.16843888 0.03846706
000010 4f 1c 59 be 7b 32 13 be 99 52 13 bd 7c c1 06 3e
       -0.21202205 -0.14374726 -0.035967443 0.13159746
000020 e6 3b 84 bd 71 7b 39 3e 9c 4c d2 bd c4 46 26 3d
       -0.06456737 0.18113495 -0.10268518 0.04059483
000030 72 9c b7 bc cc 0c a0 3d af b1 94 bd a4 64 35 3d
       -0.022413466 0.07814941 -0.07260453 0.04428543
000040 7b e2 f4 bd b8 c9 8f 3d 11 16 9b be 3a 74 4e be
       -0.1195726 0.07020897 -0.30290273 -0.20161524
000050 ae 3c 09 bd 2e 85 62 bd 71 d0 29 be 2b df 54 be
       -0.033505134 -0.05530279 -0.1658342 -0.20788257
000060 4b 41 fb bd dc 1d 78 bc e9 3f 3d 3b d9 51 06 be
       -0.12268313 -0.015143838 0.0028877205 -0.1311716
000070 07 05 aa 3d 49 27 06 bc 61 46 f2 3c 91 13 39 3c
       0.0830174 -0.008188077 0.029574575 0.011296169
000080 11 9d 14 3e 6b 6a 6f bd 6a 35 b3 be 8e e2 fb bd
       0.14513041 -0.058451097 -0.3500169 -0.12299071
000090 7b 1f 85 be c3 e6 73 be 0d 17 a3 be a3 7e 0b be
       -0.2600058 -0.23818497 -0.31853524 -0.13622527
0000a0 10 69 f6 3d 63 68 49 be d7 74 0d be 60 98 e2 3d
       0.12031758 -0.19668727 -0.13814102 0.110642195
0000b0 94 c5 9d be af 9e 36 3e fe de d8 bc 29 c4 4b 3d
       -0.30814803 0.1783397 -0.026473518 0.04974762
0000c0 19 5d 15 3e 91 42 d4 bd c1 3c 9a 3d 9f cd 47 be
       0.14586295 -0.10364259 0.07531119 -0.19512032
0000d0 a5 1b 00 be 4a 87 e6 bd e3 9c 48 3e 2a 35 78 3d
       -0.12510546 -0.11256273 0.19591098 0.060597576
0000e0 96 85 2c 3d 4d 5f 1b 3e 2b 06 d2 bd 02 f7 d6 bd
       0.042119585 0.15173073 -0.10255083 -0.10496332
0000f0 e5 77 64 3e b8 97 cb 3c cb 90 ec 3d 76 ab 4d be
       0.22311361 0.024852619 0.115510546 -0.20084938
000100 06 ac e1 bd 40 33 c2 bd 82 ae 05 3e d0 4f 69 be
       -0.11019139 -0.094824314 0.1305485 -0.22784352
000110 d6 05 9e 3d 04 2f f3 bb 60 aa 8f bd bc e7 58 3e
       0.07715957 -0.007421376 -0.07014918 0.2118215
000120 d4 a8 3f be be 09 96 be 4d f3 81 bc 47 9b 33 bb
       -0.18716747 -0.29304308 -0.015863085 -0.0027405785
000130 c4 77 50 be 65 9a c0 3d e4 33 1e be 7e 56 41 3d
       -0.20358187 0.094044484 -0.15449482 0.047201626
000140 68 26 d7 3d 96 2b 0c 3e 11 d6 97 3d f3 d2 82 3d
       0.10505372 0.13688502 0.07413877 0.063878916
000150 cb f1 3b 3e ff d1 4c be 4b 6a 14 be a8 54 f3 3d
       0.18353955 -0.20001982 -0.14493673 0.11881381
000160 6f 08 3f bd a0 ba 25 3e 1a 58 c2 bd 19 10 c3 bb
       -0.046638902 0.16184473 -0.0948946 -0.0059528467
000170 23 df 17 3e 88 7b 86 3d 7c 4c 80 be f3 5c 74 3d
       0.14831214 0.065665305 -0.25058353 0.059658956
000180 8b 7c 6d bd ea 24 92 3c f1 57 3d be 66 1d 04 be
       -0.0579801 0.017839868 -0.18490578 -0.1290184
000190 f0 ee 54 bc 84 8e 9c 3d 3b d7 8d bd 4f 81 23 3e
       -0.01299642 0.0764437 -0.069258176 0.15967296
0001a0 59 35 a0 3d 32 e7 20 3e 14 30 88 3d 00 b7 30 3c
       0.07822675 0.15713194 0.06649795 0.010785818
0001b0 b4 80 67 bc 23 a4 ba bd b9 59 97 3c 1c 04 02 be
       -0.014129806 -0.09113338 0.0184754 -0.1269688
0001c0 0f a7 ac bd 24 79 aa 3d 33 c0 5f 3e 6a d0 6b bd
       -0.084303014 0.08323887 0.21850662 -0.057571806
0001d0 e8 78 69 be 80 e7 12 3e 45 ff de bd e4 7a 32 be
       -0.22800028 0.14346123 -0.108885325 -0.17429692
0001e0 f5 0b c3 3d 50 53 9d be 40 07 a9 3b 52 f5 56 bc
       0.09523765 -0.30727625 0.005158335 -0.013120012
0001f0 1a 0c 0d be a8 56 52 3e db 49 bd 3d 02 95 84 3e
       -0.13774148 0.20540869 0.092426024 0.25894934
000200 9a ed 10 3d d7 df 54 bd 44 cb 16 be b3 50 e9 bd
       0.035382845 -0.051971283 -0.14725977 -0.11392345
000210 7d 5f 9c 3b 03 34 2e be 66 6f eb 3d 67 17 16 3e
       0.0047721253 -0.17012028 0.11495857 0.14657365
000220 14 9f ce 3d 95 49 e3 3c fb b0 1a bd f5 f5 a4 be
       0.100889355 0.027745048 -0.037766438 -0.322189
000230 5d 9b 05 3e 99 c7 c4 bd e0 b4 72 3e 5c f2 1d 3d
       0.13047548 -0.09608383 0.23701811 0.03856121
000240 b8 74 91 be 4d 3a 9d 3e c3 38 25 bd 6d 64 89 3c
       -0.28409362 0.30708542 -0.040337335 0.01677152
000250 51 5d 97 3c 8f cb 25 be b8 73 1b be da a7 54 be
       0.018477114 -0.16190933 -0.15180862 -0.20767155
000260 0b aa 6e bc cc 12 fe bd ea fe 6c 3d 96 39 73 be
       -0.014566909 -0.12405929 0.057860292 -0.23752436
000270 81 11 d1 3b 72 5e 19 be 59 d0 ce 3d ac 87 62 3d
       0.0063802605 -0.14977434 0.10098333 0.055305168
000280 f7 78 8e 3d 27 c3 98 be 63 a6 11 be 9f f2 93 3d
       0.06956666 -0.2983639 -0.14223628 0.07224011
000290 fc 66 16 3e 5b 30 dd bd ad 02 28 3e 47 38 7c bd
       0.14687723 -0.10800239 0.1640727 -0.061577108
0002a0 dd 2f 4b 3d 41 50 a6 bd 6f b3 2a 3e 8f c6 2a be
       0.049606193 -0.08120776 0.16670011 -0.16677307
0002b0 cd 9a 24 be a3 c0 4d bc b5 5a 9f 3d f9 97 9a 3d
       -0.16074677 -0.012558135 0.07780973 0.07548518
0002c0 45 a1 0d be 1a ae 10 be 0c f2 3d 3e 20 3d 76 3d
       -0.1383105 -0.14128914 0.18549365 0.060116887
0002d0 8c 6f 0e be 44 4c a3 be ca d0 e5 3d c6 e4 5f 3e
       -0.1390974 -0.31894124 0.11221464 0.21864614
0002e0 53 fc e8 3a 4b 75 02 bd 3b 0d db bb 08 7e 34 3e
       0.0017775394 -0.03185014 -0.006684927 0.17626202
0002f0 a1 49 02 3e 7b ba 96 3d 5d 93 73 3e 91 af 4c 3d
       0.127234 0.07359787 0.23786683 0.04997212
000300 1b d8 07 3e c0 05 c8 bd d4 95 91 be a6 e5 39 be
       0.13266031 -0.09766722 -0.28434622 -0.1815401
000310 ed 38 fa 3d 5d 86 41 be 99 c8 15 3d 16 5e 8e 3d
       0.12217889 -0.18898912 0.036568258 0.06951539
000320 28 1c 6a be ed 5b c6 3d 01 4b 09 39 37 02 83 3d
       -0.22862303 0.09685502 0.00013093279 0.06396907
000330 4c a0 f1 3b 7b 24 57 bc 0e 91 fc 3d 17 cc 9a bd
       0.007373845 -0.013131256 0.123323545 -0.07558458
000340 39 dc 22 3d a0 11 37 be 29 f3 de bd 56 52 ce 3d
       0.039760802 -0.17877817 -0.10886223 0.10074298
000350 a3 16 1a 3e c9 ba cd 3c 72 bf ea 3d 74 b7 42 be
       0.15047698 0.02511348 0.114622965 -0.19015294
000360 9c cb 07 3e 96 56 08 3e 8c ca d8 bb 8b 3e 16 3d
       0.13261265 0.1331428 -0.0066159423 0.03668074
000370 f6 b2 47 3e 56 25 d9 bd 5f b4 1f bd 37 e7 82 3d
       0.19501862 -0.106028244 -0.038990375 0.06391757
000380 6d 84 37 3e 32 3d 4c 3d d9 41 55 bd 65 62 35 bc
       0.1792161 0.049863048 -0.05206475 -0.011070822
000390 eb 8d 21 3e 4e 78 34 3d 04 8e 71 be 09 cf 4b bd
       0.15776794 0.044060044 -0.23589331 -0.04975799
0003a0 54 43 78 3e 5f 38 28 be a8 fb 03 be c4 37 61 be
       0.24244434 -0.16427754 -0.12888968 -0.21993929
0003b0 81 4e d2 bd 10 37 43 bc 57 37 1b 3d 38 c3 80 bd
       -0.1026888 -0.011914983 0.037894573 -0.06287235
0003c0 66 1c b4 3d 39 fa 59 be 39 a8 02 be 53 8e 7d 3e
       0.08794479 -0.21286859 -0.12759484 0.24761324
0003d0 3a a1 2f be 24 7b 01 be 25 ea bc bd 8f fc 1c be
       -0.17151347 -0.1264463 -0.09224347 -0.15330718
0003e0 bb 98 46 3d ae 34 d6 3d 3f 52 bf 3c 0d ff c3 bc
       0.0484855 0.104592666 0.023354648 -0.023925329
0003f0 ed 12 4c be ac db 10 be 8a 60 40 bb ff b0 6b bd
       -0.19929095 -0.14146298 -0.0029354417 -0.057541844

fc2.weight f4 [150, 300]
000000 a7 67 42 be f2 b7 4a 3c b3 50 b8 3b df 48 a7 3c
       -0.18984853 0.012372958 0.0056248545 0.02042049
000010 5d cd 24 3d 3f 2c cd 3d 5f bf 3d 3d 27 da e6 bd
       0.040234912 0.10018205 0.046325084 -0.11272078
000020 5e ab d6 3d ef 62 e6 3d 5f 7e b6 bd 80 1d 4e be
       0.104819044 0.11249339 -0.08910822 -0.20128441
000030 ee ae 24 bd 5a 4b f2 bb fa 27 76 3d 7b b5 aa bd
       -0.04020589 -0.0073942365 0.06009672 -0.08335396
000040 aa 41 f5 3c 62 2e 16 3e 90 7e 9e 3d 08 4a 89 3d
       0.029938538 0.14666131 0.07738984 0.067035735
000050 e2 11 5e 3d 8c 37 d4 3d 75 5e 4d 3e 04 7d 00 3d
       0.054216273 0.10362157 0.20055564 0.031369224
000060 03 20 7b 3e 96 aa 30 3e 76 2e f4 3d 19 86 fa 3d
       0.2452393 0.17252573 0.11922924 0.12232608
000070 1e b6 18 be 60 a6 b2 bd 7e d9 21 be 65 08 08 bd
       -0.14913222 -0.0872314 -0.15805623 -0.03321113
000080 23 42 fa 3d aa 77 96 be f4 be 2c be c5 08 53 bd
       0.12219646 -0.2938817 -0.16869718 -0.051522035
000090 db 15 0a 3d d3 36 51 be 1b 1f 40 3e 93 92 ff bd
       0.03371225 -0.2043107 0.18761866 -0.12479129
0000a0 0c b9 58 3d 28 00 4e 3c ac 7e 32 be 7a bd 20 3e
       0.05291085 0.012573279 -0.17431134 0.1569728
0000b0 e7 23 d2 be 9c ce 3c 3e f6 96 8e bc 7a d9 06 bd
       -0.41043016 0.1843819 -0.017405968 -0.032922246
0000c0 df 9c 25 be 20 02 e5 bd 93 91 65 be 1e f8 5c be
       -0.16173123 -0.11182046 -0.22418813 -0.21579024
0000d0 7d a0 c8 be e7 07 94 bd 7d 6b 1d bd 27 c3 ab bd
       -0.39184943 -0.0722807 -0.038432587 -0.08386832
0000e0 19 96 3a 3d 6b fa 2b bc 6e 38 98 3d 32 e6 d8 bd
       0.0455533 -0.010496716 0.07432638 -0.10590781
0000f0 8a 12 92 3d 38 cd ab 3d bf 5b 77 bd b1 49 77 3e
       0.07132442 0.08388752 -0.06039023 0.24149205
000100 95 83 ca 3d 5b e0 17 bc 1b 85 4d bc a2 34 7b 3d
       0.098883785 -0.009269799 -0.012543942 0.06132949
000110 1a a4 58 be 76 42 48 3e b7 a7 ce be c0 90 c7 bd
       -0.2115635 0.19556603 -0.4036233 -0.09744406
000120 f2 8b a4 3d 93 fb 23 be ae f1 8c 3d b1 a2 4b bc
       0.08034505 -0.16013937 0.06882034 -0.012428925
000130 53 30 dd bc bd 09 2f bc 9e b5 80 be f0 7d 99 3e
       -0.027000582 -0.010683474 -0.25138563 0.29978895
000140 19 c9 49 be b0 09 09 3d ea c1 32 3d 7b df 14 3c
       -0.19705619 0.033456504 0.043641962 0.009086485
000150 9d 19 80 3d 98 19 01 3d 24 e4 ad 3b 55 0a a7 3d
       0.06254885 0.03151855 0.0053067375 0.081562676
000160 90 64 d3 bc 26 68 db bd 18 77 b9 bd 24 26 95 bd
       -0.025804788 -0.10713224 -0.090559185 -0.07282665
000170 43 e0 04 3d 7a 81 24 3e d0 81 83 3e 0b 1d 12 be
       0.032440435 0.16065016 0.25684977 -0.14268892
000180 f9 9f 02 3e 46 6b 52 bd c8 db ac b7 d5 97 c6 bd
       0.12756337 -0.051371835 -2.0606341e-05 -0.096969284
000190 f5 07 62 bd c9 72 5a 3e e8 03 74 bb 43 3c ee bd
       -0.05518337 0.2133285 -0.0037233774 -0.11632588
0001a0 3a aa a5 be 77 2b 26 be 18 75 08 bf f0 90 17 3d
       -0.32356435 -0.16227518 -0.5330367 0.037003458
0001b0 61 27 69 3d 0c 44 5d 3d e9 d3 b0 bc 6b 63 8e bd
       0.05692232 0.054019973 -0.021585422 -0.06952556
0001c0 c0 55 10 be 3b 15 cb 3b 7f ae 8a 3d 9d b8 ec bd
       -0.14095211 0.006197599 0.06771564 -0.1155865
0001d0 99 71 fd bc 2a 34 67 3d d0 43 92 3d 40 ed 55 bd
       -0.030937957 0.056446232 0.071418405 -0.052228212
0001e0 4f 92 5e 3d ac 92 63 3d 9c e1 9f 3c 5e 1d 6a be
       0.05433875 0.0555598 0.019516759 -0.22862765
0001f0 18 8b 77 be 84 97 1a be 1f bd 13 be 08 25 c0 3d
       -0.24174154 -0.15096861 -0.14427613 0.09382063
000200 a1 9c 60 bb 02 ad 9d bd ba 6f 13 bd e9 43 97 3c
       -0.0034273046 -0.07699014 -0.035995223 0.018465
000210 2f 66 27 be ae 61 1a be 4c fe 09 be 38 c0 1f 3e
       -0.16347574 -0.15076324 -0.13475913 0.1560067
000220 dc 71 8e 3e 65 3a ac bd f7 5f 40 3d d9 42 05 bf
       0.27821243 -0.084095754 0.04696652 -0.52055126
000230 9d 34 38 be 0e 91 f8 3d 68 df 2d bd fb 71 96 3d
       -0.1798882 0.12137042 -0.042449385 0.07345959
000240 d6 71 5f be 12 04 b6 bd 0a db a6 3d bc 96 0e bc
       -0.21820769 -0.08887495 0.08147247 -0.00870293
000250 3e a5 73 bd d3 86 b0 3b f9 f5 37 3e 3d 6b d0 3d
       -0.05948376 0.005387166 0.17964925 0.10176704
000260 f4 2f a7 bd 55 13 c6 3d 97 63 b5 3d 5c 34 b6 bd
       -0.08163443 0.09671656 0.08856886 -0.088967055
000270 c5 e9 67 bd 57 49 ed 3d 90 20 fa 3d df 25 00 bd
       -0.056619424 0.11586254 0.12213242 -0.031286117
000280 08 5e 97 3d 3d 5c 2b bd 9a d7 b2 3b 81 16 04 bd
       0.07390982 -0.041836012 0.0054578306 -0.032248024
000290 c8 c3 f1 3d a8 36 db 3e c3 be 0e 3c 53 d2 80 3e
       0.118049204 0.42815137 0.008712473 0.25160465
0002a0 3e c1 e4 3d 84 75 7d 3d 3f 21 16 bd 0a 80 0a 3e
       0.111696705 0.06187965 -0.0366528 0.13525406
0002b0 b8 e9 24 bd 73 5d f7 3a 5d bc b5 3d b6 8c 9d be
       -0.040261954 0.0018872455 0.08873818 -0.30771416
0002c0 50 cd e0 be 0c 2d 73 3c ae 29 17 3d 93 bb 0f 3e
       -0.4390664 0.014842283 0.036904983 0.14036398
0002d0 f2 a0 0a 3e e5 39 a3 bd 4b c6 9f bd f1 86 06 be
       0.13537958 -0.07970027 -0.07801493 -0.13137414
0002e0 18 8a 0e 3e 28 05 86 3d 0d 65 4b bd e3 30 1b be
       0.13919866 0.06543952 -0.049656916 -0.15155368
0002f0 0a f5 01 be d9 8d 20 3c 93 bb db 3b 46 09 c8 bd
       -0.12691131 0.009799444 0.00670571 -0.09767394
000300 ca 35 99 ba ee 93 ab 3e 6f 24 63 3e 9d 81 32 bd
       -0.0011689004 0.335113 0.22181867 -0.04358064
000310 5b a4 ee be a1 22 c7 bd f8 06 7d be 4a a0 43 be
       -0.46609768 -0.09723402 -0.2470969 -0.19104114
000320 00 c3 35 be 06 9a d4 3d 2a 03 83 3e fa 4d 05 3d
       -0.17750168 0.1038094 0.2558835 0.032545067
000330 0a a4 c6 3c 03 6f 02 3d 1b c9 f3 bd 7d b9 fe 3d
       0.024248142 0.03184415 -0.11903592 0.12437723
000340 e5 ad 5a bc 52 b7 88 3d ea e7 1b be a0 8c 82 3c
       -0.013347124 0.066755906 -0.15225187 0.015936196
000350 19 ec 88 bd 52 70 82 3a 41 dc ca 3d 2b 68 07 3c
       -0.06685657 0.0009951687 0.09905291 0.008264582
000360 e6 53 18 3e ec 78 24 be 5c e1 c6 3c 7f 79 77 bd
       0.14875755 -0.16061753 0.024277382 -0.060418602
000370 99 8f 88 3d 03 37 b3 bd 3d 20 ef bb 89 eb 94 3d
       0.06668014 -0.08750727 -0.0072975443 0.07271487
000380 8b 6e 96 3d 67 e5 49 bd ea d7 1f 3e 27 e1 98 3d
       0.07345303 -0.04929104 0.15609708 0.074648194
000390 47 f9 e8 bc 9a f7 28 be bb de 08 be 19 22 7e bd
       -0.028439177 -0.16500703 -0.13366215 -0.062044237
0003a0 95 a8 0d 3d e3 93 59 3d bd 42 34 be fc 5f 97 bd
       0.0345846 0.05311955 -0.17603584 -0.073913544
0003b0 bb 6a 0a be d0 6a e5 bd 7d 1d b8 3c 9d aa 9b bd
       -0.13517277 -0.112020135 0.022474999 -0.07600901
0003c0 ec 79 15 3e ed c3 15 be c2 ba 4e 3e d9 93 b6 bd
       0.14597291 -0.14625521 0.2018843 -0.089149185
0003d0 8a a5 dc bd 6c 8b 10 bc 6d 08 88 be 80 b2 45 be
       -0.107737616 -0.008822303 -0.26568928 -0.19306374
0003e0 c4 63 73 be b5 16 b4 bd 56 7f 38 3d 88 04 3e be
       -0.23768526 -0.087933935 0.045043312 -0.18556416
0003f0 47 55 b4 bd 20 15 1d 3c a2 7e a4 3b 56 83 af 3d
       -0.08805328 0.009587556 0.0050199786 0.08569972

fc2.bias f4 [150]
000000 c2 50 37 bd 44 95 ac 3d 72 83 78 bd 3a cd 0a be
       -0.04475475 0.08426908 -0.06067223 -0.1355485
000010 a0 db 75 3c de 03 5e 3c d4 1b af bc f6 66 16 3c
       0.015005976 0.013550727 -0.021375574 0.009179821
000020 73 d2 6a 3d e3 07 e9 ba 1c d3 03 bd 5a 2a 78 3d
       0.057329606 -0.001777884 -0.03218375 0.060587265
000030 de d3 91 bd 54 a1 78 bc 83 f8 1d 3c 0c b8 ea 3a
       -0.071204886 -0.015175182 0.009641769 0.0017907633
000040 60 60 b1 3d 96 da 92 bd 04 c4 1d 3d d8 75 02 be
       0.0866096 -0.07170598 0.038517013 -0.12740266
000050 56 06 26 bd 68 ea 28 3b 06 37 1f bd af 51 15 3c
       -0.040533386 0.0025774483 -0.038870834 0.009113713
000060 59 48 99 bc 94 4d 18 be ab 65 a2 3d bc 40 c2 bd
       -0.018711256 -0.14873344 0.07929548 -0.09485003
000070 68 a0 1e bd d4 68 a4 bd 99 d1 52 bd e5 8b 46 bd
       -0.038727194 -0.08027807 -0.05146942 -0.048473258
000080 14 b3 39 3d f7 28 22 3d 7f 1a 37 bc 50 e7 98 bc
       0.045336798 0.03958985 -0.011175751 -0.018664986
000090 19 b6 26 bd a8 b7 94 3d 4b df 8b bd ea bd d9 bc
       -0.040701006 0.07261592 -0.06829699 -0.026579816
0000a0 6b 8d a4 bc 2d 75 9f bc 43 05 04 bd 6c 21 06 3d
       -0.020086965 -0.019465053 -0.03223158 0.032746717
0000b0 0e be d3 bc a7 4e 11 3c 2b 4b 0d 3d b3 2f 17 bd
       -0.025847461 0.00886885 0.034495514 -0.036910724
0000c0 d6 ba 17 bd 55 58 d7 3b aa 0a 95 bc 40 30 b0 bd
       -0.037043415 0.0065718093 -0.018193562 -0.08602953
0000d0 97 89 c9 bc 30 fe 18 bd b4 1d a9 3d bc a6 24 bd
       -0.02460174 -0.037351787 0.082576185 -0.040198073
0000e0 bf 7b e4 bc 7f 6d 8c 3d c1 bc ad bb 45 6d f1 bb
       -0.027891038 0.06856822 -0.0053020422 -0.0073677623
0000f0 0a c8 4e bd 09 82 a5 bb 7c 66 67 3c 18 d4 d5 bd
       -0.05048374 -0.005050902 0.014123555 -0.10440844
000100 39 16 79 3d 6d c1 88 bc 22 09 d6 bd 09 d0 23 bd
       0.06081221 -0.016693795 -0.10450961 -0.03999332
000110 fa 32 5c bc 40 4d 51 bd 2a 58 f4 bc 6b c2 fa 3c
       -0.013439888 -0.051099062 -0.029827196 0.030610284
000120 54 fa cb bd 65 b5 86 3b 5b 4b ac 3d 5e 71 02 bd
       -0.09959856 0.0041109794 0.084128104 -0.031846397
000130 b1 1f 19 3d 4b 5c bf 3d ba 18 25 3d 62 61 5a 3d
       0.03738374 0.09343775 0.040306784 0.053315528
000140 be 32 e9 bc 8d 6d c3 3c a8 9a 30 3d b6 1c a4 bc
       -0.028466579 0.023855949 0.04311624 -0.020033222
000150 11 81 4c bd dd 4b 87 3d 2c 20 b0 bd ce 41 73 bc
       -0.049927775 0.06606267 -0.08599886 -0.014847232
000160 c2 e3 06 3d 77 b1 5d bd 0b 19 05 bd 32 d9 05 be
       0.03293205 -0.05412432 -0.032494586 -0.13071135
000170 e1 bf 6e bc 68 0a 25 bd 1a c9 d5 ba 41 39 e1 3d
       -0.014572115 -0.040293127 -0.0016310543 0.109972484
000180 1a f8 2a bc 16 a4 4c bd 34 92 14 bb 94 43 0e bd
       -0.010435129 -0.049961172 -0.0022670152 -0.034732416
000190 7e a5 29 3c 26 ba 07 3d 4f f5 bc bb 31 9c a4 3d
       0.010354398 0.03313651 -0.0057665478 0.08037604
0001a0 05 35 71 bb 00 7e 69 3d 70 51 3c 3b 15 1f 5d 3c
       -0.0036805284 0.05700493 0.0028735064 0.01349618
0001b0 48 f6 9d 3b 5f 89 90 bc a6 55 87 3d e3 30 1a bd
       0.004820619 -0.017643629 0.06608133 -0.03764428
0001c0 26 eb c4 bb 01 a4 26 bd 13 21 bd 3c 0c d9 ea bd
       -0.006009477 -0.04068375 0.02308706 -0.1146718
0001d0 2d d3 ad 3d cd 7a 8d 3d 3e 41 19 3d d2 d2 f4 3c
       0.08487544 0.06908188 0.037415735 0.029885683
0001e0 96 c0 e6 3d 8b f7 01 bd 79 60 81 3d 2f 72 3b bd
       0.112672016 -0.031730216 0.06317229 -0.04576319
0001f0 f6 d9 92 3d 74 f9 e2 3d 24 16 25 3d c7 3c 82 bd
       0.07170479 0.11082736 0.040304318 -0.063592486
000200 48 1d 51 bd 12 73 56 bc fb c8 13 bd b6 fa 95 bd
       -0.051053315 -0.013088958 -0.03608034 -0.0732321
000210 15 92 79 bd 39 18 e3 3c 32 06 b1 3c 93 c5 0e bd
       -0.06093033 0.027721511 0.0216094 -0.03485639
000220 19 d4 98 3d cc 23 8d 3b 01 47 e4 3c a5 41 90 bd
       0.074623294 0.004307246 0.027865889 -0.07043771
000230 55 86 79 3d 93 48 c2 3d 01 7d d1 bd 37 ce 03 bd
       0.060919125 0.09486499 -0.10228921 -0.032179084
000240 e6 24 25 bc 5d 56 82 bd 8a a3 a6 3c c1 54 b3 bc
       -0.010079598 -0.06364129 0.020341653 -0.021891
000250 2b a5 4d bd 73 18 7f bb
       -0.050206345 -0.0038924485

fc3.weight f4 [4, 150]
000000 55 8a 7a 3e 70 07 4e bd b2 5d d8 be 34 d0 47 3f
       0.24466832 -0.05030006 -0.42258984 0.7805207
000010 d3 a5 88 3e 8e f6 84 be fe f2 22 3f 3a e8 6d be
       0.26689014 -0.25969356 0.63652027 -0.23233119
000020 df f5 eb bd 24 5e 25 be 66 6c 7b be 06 be 66 3e
       -0.115215056 -0.16149193 -0.2455307 0.22533426
000030 69 d3 94 bc 84 f0 18 3f 15 68 29 3f d5 d9 26 3e
       -0.018167214 0.59742 0.6617444 0.16294034
000040 e3 60 91 be ad 1f 12 3f 2c 76 9c bd 48 8d 36 bf
       -0.2839423 0.57079583 -0.07639727 -0.7130933
000050 6b 71 c9 bd 1e 8c 12 3f fd 7b 8d bd a1 6d 90 bf
       -0.09836086 0.5724505 -0.069084145 -1.1283456
000060 e5 ca 54 3e 0e 9c bf 3d fb 4a 15 be e8 c9 bd 3e
       0.20780523 0.09355937 -0.14579384 0.37068105
000070 3f 36 68 3f 75 a0 af be 0e 80 02 3f c2 4e b7 3e
       0.9070777 -0.34302106 0.50976646 0.35802275
000080 9b 97 52 be c5 cc 97 bc 7b f8 fb bc 12 41 4c 3c
       -0.20565645 -0.018530259 -0.030758133 0.012466686
000090 d6 06 a1 3e 37 bd 5f be 9b d6 a3 be b6 a3 c6 bd
       0.31450528 -0.21849523 -0.31999668 -0.09699194
0000a0 a8 0e 14 3e 68 42 ac be 33 af 2b be 98 b8 a7 be
       0.14458716 -0.33644414 -0.16766052 -0.3275802
0000b0 de 78 a2 bf 55 42 29 3f ad 7d 2c be a7 d7 db be
       -1.2693136 0.6611684 -0.16844817 -0.42937967
0000c0 92 6c d0 be fd 93 44 3e f2 19 6c be da dd 77 bd
       -0.40707833 0.19197078 -0.23056772 -0.06051431
0000d0 73 b3 a3 3e 8b 98 7c 3e b7 81 e4 bd 11 73 a4 3e
       0.31972846 0.24667566 -0.11157554 0.3211904
0000e0 b9 f7 37 3e 14 22 64 be 93 8f 4d 3e 4c 16 49 3f
       0.17965592 -0.22278625 0.200743 0.7854965
0000f0 93 4c 48 3f 74 2b f9 3e c8 cb f3 bd 92 b5 c3 3e
       0.78241843 0.48665965 -0.119041026 0.38224465
000100 86 6a a3 39 ca 7b 60 bd 7b 5c 47 be 09 64 8f be
       0.0003116915 -0.054805554 -0.19468872 -0.28006008
000110 59 89 2e be 61 e8 a8 3e 67 10 c5 3d 8e 5b bf bd
       -0.17044581 0.3298979 0.09622269 -0.093436345
000120 4b 5f b2 bd d9 da af 3d 27 ae 55 be 5e 9e 80 be
       -0.08709582 0.08586664 -0.20867215 -0.25120825
000130 ee 66 24 bd 1f 50 1b be 63 06 a1 be fe fe d6 3c
       -0.040137224 -0.15167283 -0.31450185 0.026244637
000140 f4 9b b4 bd 26 d7 33 bf a9 72 01 3f 4b 1e 15 bf
       -0.08818808 -0.70250165 0.5056558 -0.5824935
000150 4b ec c2 be b1 5a 17 be 75 88 26 3f 68 4e 9d bb
       -0.38070902 -0.1478069 0.65051967 -0.0048006065
000160 dc 5c 6b be 8a f3 65 3f 31 02 01 3f 55 4c b2 3d
       -0.22984642 0.89824736 0.5039397 0.087059654
000170 29 5f 89 3f 00 5f df 3e 85 b2 d7 3e 40 05 45 be
       1.0732166 0.43627167 0.42128387 -0.19240284
000180 bc e4 62 be a3 92 aa bd 3c 37 c8 3d 4e 0b cb 3e
       -0.22157568 -0.0832875 0.0977616 0.39657062
000190 5f e8 3b 3e ed ff 08 3e 4c 0d 27 be ea 41 a2 be
       0.18350361 0.13378878 -0.16313666 -0.31690913
0001a0 65 97 67 3e 00 96 6b 3e 9f 16 6b bf a5 75 b3 3c
       0.22616346 0.23006439 -0.9183139 0.021906683
0001b0 2b f8 1f be df 8f 5d 3d 26 84 f1 bc 38 28 70 3f
       -0.15622012 0.054092284 -0.029481959 0.9381137
0001c0 80 c6 14 3e e9 23 4b be 1b 33 bb 3d 0e fe b6 3f
       0.14528847 -0.19837917 0.09140607 1.4296281
0001d0 91 57 7d 3f bd a4 a0 be 4f 56 92 be 5a 0c 46 3d
       0.9896174 -0.31375685 -0.28581473 0.048351623
0001e0 fd 7e 28 be a2 bb 00 3f e1 05 ef 3e b1 c6 9c bd
       -0.16454692 0.50286305 0.46684173 -0.07655085
0001f0 41 f3 21 be 1f fc 29 be 8f ad 05 3f 62 45 99 bb
       -0.1581545 -0.16600083 0.52217954 -0.0046774605
000200 5d 32 a9 3e b1 76 93 3f 1c dc b3 bd b9 4f a1 bd
       0.33046237 1.1520597 -0.08782217 -0.07876534
000210 95 f3 19 3f c2 d3 26 be 3c b0 0b 3f b9 92 b0 3e
       0.601373 -0.16291717 0.5456579 0.3448694
000220 31 47 ff 3d d9 28 2b bf a7 c3 19 be bd 44 21 3e
       0.124647506 -0.66859204 -0.15016042 0.15748878
000230 b6 ef e4 3c 23 65 9b 3c 16 4f c0 3e a6 3c 6b be
       0.027946334 0.018969124 0.37560338 -0.22972354
000240 e3 57 8a 3f 76 10 5f bf cf 82 e4 bd 84 fc 89 3f
       1.0808071 -0.8713449 -0.11157762 1.0780187
000250 a3 fa 2a 3f f2 9a af be ec 29 fe bd 44 17 c7 be
       0.6678869 -0.342979 -0.1241034 -0.38884938
000260 01 7a 2a bf f7 fd 91 3d aa 0f 10 3d bb 7f 00 3f
       -0.66592413 0.07128518 0.03517119 0.501949
000270 e6 5c 5f bf 4a ed c3 3d 09 96 8d 3e 47 8e b6 3d
       -0.87251127 0.09566744 0.2765353 0.08913856
000280 bf ea 57 be af 22 ca be 43 ad 0f 3e cf 43 03 3e
       -0.21085642 -0.39479586 0.14030938 0.12818836
000290 4b 4f 22 3e 96 14 5f 3e 09 03 79 be 6d ea 02 3f
       0.1585056 0.21785197 -0.24317564 0.51138955
0002a0 54 91 dc 3d 0d 72 2a bf 86 3b 3f 3e 7f 43 ca 3e
       0.10769907 -0.6658028 0.1867505 0.3950462
0002b0 87 bd 3f bf 96 bc 8b be 69 05 ad 3e eb 04 71 3f
       -0.7489857 -0.27292317 0.3379319 0.9414813
0002c0 a0 b7 b1 3d 8a 1d 65 be b4 72 80 3e 90 4f d2 3e
       0.08677602 -0.2237455 0.25087512 0.41076326
0002d0 75 ca 95 be fa 69 08 3f b2 db bc be c5 da 00 3e
       -0.29256025 0.5328671 -0.36886364 0.12583454
0002e0 87 c9 ee be fd 60 a7 3b 66 b8 ba 3e eb 0c 9a 3e
       -0.46638128 0.0051079975 0.3646881 0.3008798
0002f0 74 82 cc 3e 0f d5 58 be 1b d5 0f be bf 02 9a 3d
       0.39943278 -0.21175025 -0.14046137 0.07520055
000300 90 b2 d9 be b2 27 de bc a3 8c 22 bd 3b 74 86 be
       -0.42519045 -0.027118538 -0.039684903 -0.26260552
000310 77 99 b1 bd 13 4e f5 be 2e 1d 1a 3f af 1a 36 3f
       -0.08671849 -0.47911128 0.60200775 0.71134466
000320 16 41 92 be e1 da 9d bd b8 c0 cc bd d7 55 c9 bf
       -0.28565282 -0.077077635 -0.09997696 -1.5729321
000330 cf 98 be 3d 65 69 6c bf 51 8b be 3e da 49 5e 3d
       0.0930649 -0.9234832 0.37215665 0.05426965
000340 5b 54 0e bd d9 49 98 3e ba 68 ee be f7 4d e2 3d
       -0.034748416 0.2974384 -0.46564275 0.11050027
000350 b4 63 00 be bf c3 f0 bd 69 2a 56 3e 51 ab 17 3e
       -0.12538034 -0.117560856 0.20914616 0.14811446
000360 6a 59 a7 bd ca 70 66 bf 1b cb 26 3f 3d 32 c2 be
       -0.08171351 -0.9001585 0.65153664 -0.37928954
000370 7f c8 28 3e 14 59 db bd 56 17 8a be 5e 84 7e bf
       0.16482733 -0.1071035 -0.2697093 -0.99420726
000380 b5 53 5b 3e eb 75 71 3e 30 83 13 be 62 6e 59 be
       0.2141865 0.23580138 -0.14405513 -0.21233514
000390 5f ef da 3d d4 79 ab 3d 13 a5 29 3e 0f 27 09 be
       0.10690188 0.08372846 0.16566877 -0.13393806
0003a0 4e 81 0d bc ab b0 1e 3d 76 85 2f bd 07 80 89 3d
       -0.008636786 0.038742702 -0.042851888 0.067138724
0003b0 f8 cc 34 3e 80 48 df be fb c7 13 bf 6c f3 ae be
       0.17656314 -0.4361 -0.5772702 -0.3417009
0003c0 8d 14 d2 be 62 1e 00 bf eb a5 84 3e 25 0b 5f be
       -0.41031304 -0.5004636 0.25907835 -0.21781595
0003d0 24 8f ca 3d b1 de 4e 3d 27 bd 27 3e 0a ac 2c 3c
       0.09890583 0.050505344 0.1638075 0.010539064
0003e0 e6 10 b4 be 71 55 b9 bd 61 cd 2d 3e 23 99 02 bf
       -0.35169142 -0.090495 0.16972877 -0.5101492
0003f0 53 c7 8c 3d a9 ad 3f 3e d5 72 70 be 85 99 5e 3e
       0.068739556 0.1871859 -0.23481305 0.2173825

fc3.bias f4 [4]
000000 27 7c d2 bd 27 93 03 3e 1c ac 9c bc e1 6e 0b 3e
       -0.102775864 0.12849103 -0.019125037 0.13616516
